base_model/model_decoder_b.pth (torch, 15142 bytes, 23 tensors)

bn1.weight f4 [5]
1.0 1.0 1.0 1.0 1.0
00000000: 0000 803f 0000 803f 0000 803f 0000 803f
00000010: 0000 803f

bn1.bias f4 [5]
0.0 0.0 0.0 0.0 0.0
00000000: 0000 0000 0000 0000 0000 0000 0000 0000
00000010: 0000 0000

bn1.running_mean f4 [5]
0.0 0.0 0.0 0.0 0.0
00000000: 0000 0000 0000 0000 0000 0000 0000 0000
00000010: 0000 0000

bn1.running_var f4 [5]
1.0 1.0 1.0 1.0 1.0
00000000: 0000 803f 0000 803f 0000 803f 0000 803f
00000010: 0000 803f

layer1.conv1.weight f4 [2, 5, 3, 3]
-0.041379955 0.22826827 0.045852955 0.09096942 -0.0048800837 -0.03700964 -0.04445736 0.17405954
-0.013186607 -0.052027587 0.1758017 0.002600888 0.0071303216 0.1332015 0.04179414 -0.13501567
0.032539446 -0.03500994 0.22760777 0.011862983 0.061953053 0.18970871 0.039150186 -0.07315921
0.030253723 0.039088827 -0.10453338 -0.033168655 0.011895314 -0.024905676 -0.062019646 0.051663794
0.112351574 0.010632135 -0.0855369 0.14346696 0.58843553 0.97607243 -0.30042037 -0.11677633
-0.080133 -0.2992983 -0.93110025 -1.0766895 -0.3368698 -0.0377303 -0.03883957 -0.037994564
-0.03959071 0.09223775 -0.08611814 0.057907034 0.03357225 -0.052933726 -0.068260536 -0.054314654
0.069337636 0.14398444 -0.20702402 0.012976066 0.052030586 0.12007437 0.12898783 0.111780494
0.04566459 -0.01133539 0.0040172487 -0.079283535 -0.019059252 -0.09021497 0.010983449 -0.08176002
0.09816897 -0.0567326 0.04824486 -0.062875 0.14912128 -0.19578701 -0.15840338 -0.103897944
-0.06367882 0.5687658 0.8935761 1.4704874 0.39060935 0.6580901 -0.016700692 1.7648742
1.1606818 0.8974823
00000000: 077e 29bd 28bf 693e 4fd0 3b3d 2d4e ba3d
00000010: 1ce9 9fbb 6c97 17bd ec18 36bd aa3c 323e
00000020: a30c 58bc e11a 55bd 5c05 343e a973 2a3b
00000030: 79a5 e93b f965 083e 5530 2b3d 8c41 0abe
00000040: 1548 053d 9566 0fbd 0312 693e f55c 423c
00000050: 7cc2 7d3d 0043 423e f25b 203d 7fd4 95bd
00000060: a8d6 f73c 9b1b 203d 9915 d6bd dbdb 07bd
00000070: 90e4 423c fd06 ccbc 5008 7ebd 6a9d 533d
00000080: 9518 e63d 6832 2e3c f82d afbd 01e9 123e
00000090: b6a3 163f e2df 793f b3d0 99be 6e28 efbd
000000a0: c51c a4bd a03d 99be 965c 6ebf f6d0 89bf
000000b0: 337a acbe 168b 1abd 3e16 1fbd 30a0 1bbd
000000c0: de29 22bd 25e7 bc3d b55e b0bd ed2f 6d3d
000000d0: 0e83 093d 09d1 58bd 2ecc 8bbd 0b79 5ebd
000000e0: e400 8e3d a870 133e 1bfe 53be 9199 543c
000000f0: 061e 553d 8de9 f53d 6315 043e 2ced e43d
00000100: cb0a 3b3d 12b8 39bc 20a3 833b 685f a2bd
00000110: 2622 9cbc a0c2 b8bd edf3 333c cc71 a7bd
00000120: d00c c93d 7160 68bd 679c 453d 9cc4 80bd
00000130: 40b3 183e 647c 48be 7f34 22be 72c8 d4bd
00000140: 0b6a 82bd a39a 113f 67c1 643f ee38 bc3f
00000150: f3fd c73e 9878 283f e4cf 88bc 66e7 e13f
00000160: 3991 943f 66c1 653f

layer1.bn1.weight f4 [2]
1.0513597 0.94601464
00000000: f492 863f 042e 723f

layer1.bn1.bias f4 [2]
0.073390104 0.08805407
00000000: 8d4d 963d b155 b43d

layer1.bn1.running_mean f4 [2]
-0.20703852 0.22698821
00000000: e801 54be 996f 683e

layer1.bn1.running_var f4 [2]
0.3461928 0.037888408
00000000: 2f40 b13e e030 1b3d

layer1.conv2.weight f4 [2, 2, 3, 3]
0.07133848 0.10970916 -0.08390331 -0.21602106 -0.045571126 -0.20803927 -0.018395849 -0.07808645
-0.009947236 0.076640345 0.28922158 0.23788455 0.016020307 -0.18844022 -0.06566318 -0.058171704
0.19891645 0.033030324 0.11871666 0.09406018 0.24283876 -0.18234934 0.19874361 -0.12359636
0.12994297 -0.17229529 0.31741634 0.04165259 0.02777106 -0.007125122 0.01583244 -0.16756289
0.09396003 0.017873982 0.012543951 0.09520435
00000000: e919 923d 32af e03d 80d5 abbd a034 5dbe
00000010: caa8 3abd 3f08 55be e4b2 96bc caeb 9fbd
00000020: bbf9 22bc 9df5 9c3d da14 943e 0298 733e
00000030: 053d 833c 79f6 40be 6b7a 86bd 7445 6ebd
00000040: c1b0 4b3e ce4a 073d b821 f33d a0a2 c03d
00000050: b9aa 783e c9b9 3abe 7283 4b3e 1720 fdbd
00000060: c50f 053e 2d6e 30be 6584 a23e e89b 2a3d
00000070: 2280 e33c db79 e9bb 09b3 813c 9b95 2bbe
00000080: 1e6e c03d 756c 923c 2585 4d3c 80fa c23d

layer1.bn2.weight f4 [2]
1.0240729 0.9190181
00000000: d214 833f c544 6b3f

layer1.bn2.bias f4 [2]
0.07191658 0.044311885
00000000: 0049 933d 6180 353d

layer1.bn2.running_mean f4 [2]
-0.034995545 0.35543093
00000000: 7d57 0fbd 0bfb b53e

layer1.bn2.running_var f4 [2]
0.111224815 0.07644592
00000000: d6c9 e33d ae8f 9c3d

layer1.shortcut.0.weight f4 [2, 5, 1, 1]
0.45999208 -0.08201181 0.14605293 -0.006068783 -1.1746794 0.4325082 -0.30798835 -0.06793986
0.033090327 -0.21377586
00000000: 1584 eb3e cff5 a7bd e68e 153e a4dc c6bb
00000010: e55b 96bf b771 dd3e a6b0 9dbe 0e24 8bbd
00000020: b989 073d 0fe8 5abe

layer1.shortcut.1.weight f4 [2]
1.045644 0.99551576
00000000: aad7 853f 1fda 7e3f

layer1.shortcut.1.bias f4 [2]
0.07191658 0.044311885
00000000: 0049 933d 6180 353d

layer1.shortcut.1.running_mean f4 [2]
-0.2502336 -0.29262716
00000000: 9e1e 80be 3ad3 95be

layer1.shortcut.1.running_var f4 [2]
0.1198329 0.22220574
00000000: f46a f53d e789 633e

layer2.conv1.weight f4 [1, 2, 3, 3]
0.14108683 -0.23425104 -0.08957628 0.039797932 -0.10310924 0.11183241 -0.13073142 -0.040772352
0.015257094 0.18993996 0.17103556 0.011247511 0.11814164 0.09194557 0.14520176 -0.084962815
0.02708673 0.18093823
00000000: 1179 103e 81df 6fbe c573 b7bd 2803 233d
00000010: f02a d3bd 6408 e53d 75de 05be e900 27bd
00000020: e4f8 793c 9f7f 423e f223 2f3e 7b47 383c
00000030: 3ff4 f13d f64d bc3d c5af 143e fc00 aebd
00000040: fde4 dd3c df47 393e

layer2.conv2.weight f4 [1, 1, 3, 3]
-0.106520146 0.11418251 0.07613434 0.17420325 -0.16533941 0.202091 0.20381053 -0.137424
-0.13676468
00000000: 3c27 dabd 85d8 e93d 52ec 9b3d 5662 323e
00000010: bc4e 29be f1f0 4e3e b5b3 503e e1b8 0cbe
00000020: 0a0c 0cbe

layer2.shortcut.0.weight f4 [1, 2, 1, 1]
0.41892734 0.58875304
00000000: a57d d63e 85b8 163f

conv2.weight f4 [1, 1, 3, 3]
0.023894701 -0.12780009 -0.06257671 -0.41274616 -0.8543311 -0.40197566 -0.43551287 -0.8269622
-0.31608516
00000000: d2be c33c 07de 02be 3828 80bd 7753 d3be
00000010: 71b5 5abf c1cf cdbe 8bfb debe cbb3 53bf
00000020: ead5 a1be
