base_model/model_encoder.pth (torch, 196911 bytes, 111 tensors)

bn1.weight f4 [28]
00000000: 7e15 853f c27f 813f 578c 633f e6c3 833f
00000010: 11bc 6e3f ffba 623f c551 8b3f 07cd 883f
00000020: 1d0e 553f c3fb 6b3f 93c5 8c3f d587 763f
00000030: 422c 5f3f 4130 663f dfa7 823f a3af 763f
00000040: a746 863f 3314 703f 99b6 7d3f aec2 753f
00000050: 64c7 783f 43af 893f 7efb 8a3f 465b 823f
00000060: 1cdb 853f bf99 733f 4609 753f 379f 753f
1.0397184 1.0117114 0.88886017 1.0294158 0.93255717 0.88566583 1.0884329 1.0687569
0.8322466 0.9218103 1.0997795 0.96301013 0.8717691 0.8991738 1.020748 0.9636175
1.0490311 0.9378082 0.99106747 0.9600018 0.97179246 1.0756611 1.0857999 1.0184104
1.0457492 0.9515647 0.95717275 0.9594607

bn1.bias f4 [28]
00000000: edd4 e43b b7dd 37be ce37 533d 40b4 c73d
00000010: 1f3f 273e c7e7 b03e aec4 813c a9b7 b6bd
00000020: 520e 2abe c97a 8f3c 059a 9b3d ef59 97bb
00000030: 2b7c f0be 578f 98bd 0519 623d c1c2 6ebe
00000040: 60aa 0b3d 8e7b 0ebd 56c4 9c3d 607d 59be
00000050: 2453 2c3e 6d83 303e 1a46 613d d718 a1be
00000060: 9da4 65bd 3689 383d 67c5 a23e ba20 2bbd
0.0069833905 -0.17955671 0.05156689 0.09751177 0.16332673 0.34551832 0.015840854 -0.08921749
-0.16607025 0.017514603 0.07597736 -0.004618875 -0.46969733 -0.07449215 0.05519964 -0.2331648
0.03409803 -0.0347858 0.076546356 -0.21239233 0.1682859 0.17237635 0.054998495 -0.31464264
-0.05606519 0.04505273 0.3179123 -0.041779257

bn1.running_mean f4 [28]
00000000: f945 f63d 1317 41be 0ab1 36bd dfb8 c43e
00000010: 9d43 c5bc cccf 623e f29f 05be f8a3 0bbc
00000020: 760f bebd 993f acbd 51e7 7bbe 4176 bb3d
00000030: dcde d9be 2413 ca3e 6862 52be c3a7 aa3e
00000040: ce88 dcbe 806a d9bd 9ecc 29be 1c70 8fbf
00000050: f54e a83c 59cb b33c e783 35bf e665 fdbe
00000060: 67f2 56be a301 013f c1c0 f03d 6a1e 583e
0.12025065 -0.18856458 -0.04460243 0.38422295 -0.024080092 0.2214958 -0.13049296 -0.00852298
-0.09280293 -0.08410568 -0.24599959 0.091534145 -0.4255284 0.39467728 -0.20545352 0.33331117
-0.43073124 -0.106160164 -0.16581962 -1.1206088 0.020545462 0.02194755 -0.7090439 -0.49491805
-0.20990907 0.5039312 0.11755515 0.21105352

bn1.running_var f4 [28]
00000000: 6c1f 273e 04c0 5a3d fc6f 1c3d 8fcc a13d
00000010: 3683 c43c dbaa da3d 7831 0d3d 85d3 8f3d
00000020: 0958 0d3d 4116 ad3c 1dc8 0a3e b4ca fb3c
00000030: 0e88 923d c7e5 003d e8dd 7c3d 0610 fa3d
00000040: 964e d63d ca3a e43d 2b22 1e3d 53ce 3a3e
00000050: 9f63 b93c f250 fb3c ca38 133f f8ad 883e
00000060: efff f23d 8847 213d a341 8a3d af56 7f3d
0.1632058 0.053405777 0.038192734 0.079003446 0.023988348 0.10677119 0.034471005 0.07022766
0.034507785 0.021128776 0.135529 0.030736305 0.071548566 0.031469133 0.061735064 0.122100875
0.10464208 0.111440256 0.038606804 0.18242769 0.02263051 0.030678246 0.5750853 0.26695228
0.11865222 0.03937486 0.067508005 0.062338527

conv1.weight f4 [28, 28, 3, 3]
00000000: d757 973c b3ee 8ebc dd2b 833c b52f 753c
00000010: 4425 babd af58 ecbd 1868 943c 9cb4 b53c
00000020: 64ab b33c 79a9 b5bd 47f5 433d 3af8 80bd
00000030: 8087 7fbd abfc c13d 8df9 a3bc e2f2 623b
00000040: 9ec1 c13d 289b d6bc 8f5a 7abc 47f4 713d
00000050: 2ec7 103d c65c d4bc c881 853d 9fcc 413d
00000060: 8945 e63c 2cb2 22bd ad51 e7bb 0a02 953d
00000070: baea 1b3c 047b ed3d 3962 2abe b45e 63ba
00000080: 0e88 58bd 8e07 8cbd 0be1 243d 79f5 7dbe
00000090: 1673 433e 9a34 103e 78e0 b2bc c84c 2d3c
000000a0: 432e bf3d c39c 21be 50ab 8ebd 058e 653d
000000b0: be60 7cbe eafc 00be 29ce 50be 825b b8be
000000c0: 4e14 bebd a079 01be 2ed7 cabe 37e6 0ebd
000000d0: c70c c0bd 5cf4 3b3b 4916 8ebe 7b70 4cbe
000000e0: 5bcc 83be ceb2 2bbe 0a31 b1bd a6a7 92bc
000000f0: 284f 853d c187 ae3c 8104 c93a 630e 2cbd
00000100: 81f8 abbd 13bd d6bc 7aba 78bc 9116 8d3b
00000110: 4bc9 20bc df74 6fbd 928b 72bd 5892 69bd
00000120: 2923 583c b18a 9d3c e5be dcbb e1d5 d93b
00000130: 06b1 cdb9 fe19 64bd bddd 703d 503b d039
00000140: fce9 9cbd f452 963d f3d8 00be ef27 0dbe
00000150: eedc 59bc 732b 55be 1dbe 7cbd 5c0e 0e3c
00000160: d739 83bd b0b5 3fbd c4e5 953d 05fa 5abd
00000170: b736 e5bd 1a96 a9bd d027 efbd 7e55 80bd
00000180: 377c 223c 8515 e0bd 843a 73bd 7df6 13bc
00000190: 4e9f fa39 1486 9bbd e3eb 60bc 9e44 04be
000001a0: c436 35be 0d12 573c dce5 13bd c6fb b8bd
000001b0: 66f2 6ebc c7f8 ddbd b6c4 aebd 8468 fbbc
000001c0: f90f e5bd 7024 8ebd 0e4d 963c 2874 c9bc
000001d0: 7d3a 01bd 17b4 4fbd b5ea 72bc 2dfa c3bd
000001e0: 08e6 0abe 1448 1fbd 488d 24be 48db 69bc
000001f0: a3ce 3dbd 1c4d 253d 4e97 143b 28e8 61bc
00000200: 5097 893d 6ca4 b9bd f1f3 9bbd 365c 0fbd
00000210: 0ec2 563d bb25 223d c5f1 a23d c205 03bc
00000220: 5585 5fbc d16c 6f3d 0896 a5bd 22a6 6dbd
00000230: af12 b93c 61ac 05bb b3dd b9bc ff2a 643c
00000240: 91d8 f03c d462 e7bc 088f 8ebd 421a 5d3c
00000250: 90c1 c6bd 306c 293c f7f5 ec3d 361d 4d3d
00000260: d231 0e3e 97cf 91bd 5324 7dbd 4910 2c3d
00000270: fb47 9ebc 267b 963d 943f 453b 32d7 143d
00000280: 3040 0c3d f36a 953b e56d 9ebd 70b4 773d
00000290: 27c4 d1bc e1d5 e9bc aec6 a83c 4840 17bc
000002a0: dcee 433c e495 633d a878 96bd d12b 26bc
000002b0: a71a 513d b6f2 17bc d212 13bd d3d2 8e3c
000002c0: b698 173d 61d1 90bc 6b72 aebc e42d 733c
000002d0: 0cdd 7ebd 9246 bebd eb5a b73d 4370 11bc
000002e0: fe60 833d 9d11 e93d 489c f33c 5e99 34bc
000002f0: 8838 9f3d 8647 0bbd 7143 9fbb 124d bd3b
00000300: 13c6 6c3d a2a5 4e3c f135 10bc 2cf3 d73a
00000310: bb99 5abd 5a77 09bd 340a ec3c 3f6d 70bd
00000320: c67b a03d e75b 2bbc ea70 2a3d 5bdf a93c
00000330: a8d8 303c 57ab a1bb dadd dc3b 0e91 953c
00000340: f5c6 333d 47d2 fa3c 1f26 4bbb 5aaa b0bb
00000350: ad59 8c3c d375 19bd cdf6 99bc a141 15bd
00000360: 3d56 cdbc f417 8a3c ac34 b43c 121b aebc
00000370: d03c 20bd 3cd0 64bb 8d13 823d 1680 10bc
00000380: dbc2 983c cbf4 ce3b 3e3c 23bc 34d7 2d3d
00000390: c46d 1c3d 5abc 063c bf10 8bbc e0b1 8e3b
000003a0: b645 f1bc 1f35 17bd 2c46 933d 98e3 21bd
000003b0: 83e4 053c 0aaf f4bc 7c44 84bc 55a7 9abb
000003c0: dd06 9b3c 5b22 09bd cb3b 8fbc bd6e 363d
000003d0: d859 c83c c8aa 16bd baf4 423c c9fb 1c3d
000003e0: ef48 cf3c e178 d3bc 32bf 84bd 53eb d3bc
000003f0: 3443 353d 020a d9bc 6ad0 4abd 2987 d9bc
0.018474502 -0.017447805 0.016012127 0.0149649875 -0.09089139 -0.115403526 0.018116042 0.022180848
0.021932311 -0.08870215 0.047841337 -0.062973455 -0.062385082 0.09472021 -0.020016456 0.0034629633
0.09460758 -0.026197031 -0.01528038 0.05907085 0.035346203 -0.025923144 0.065188944 0.047314283
0.028109329 -0.0397207 -0.007059297 0.072757795 0.009516412 0.11595729 -0.16639031 -0.00086734747
-0.052864127 -0.068373784 0.04025368 -0.24800672 0.1908687 0.14082566 -0.02183555 0.010577388
0.093349956 -0.15782456 -0.06966269 0.056043644 -0.24646279 -0.12596479 -0.20391144 -0.36007315
-0.092812166 -0.12644053 -0.39617294 -0.03488752 -0.09377437 0.0028679585 -0.27751377 -0.19964783
-0.25741848 -0.16767427 -0.086519316 -0.017902207 0.065092385 0.021304967 0.0015336425 -0.042005908
-0.08397008 -0.026213204 -0.015181178 0.0043056686 -0.009813617 -0.058461066 -0.059215136 -0.05702433
0.013191977 0.019231172 -0.0067366236 0.006647811 -0.0003923254 -0.05568885 0.058805216 0.00039717043
-0.076618165 0.07340041 -0.1258276 -0.13784765 -0.013297303 -0.20817356 -0.061704744 0.008670416
-0.064075164 -0.04680413 0.07319215 -0.053461093 -0.11192077 -0.08280583 -0.116775155 -0.06266306
0.00991731 -0.109416045 -0.059381977 -0.009030935 0.00047802407 -0.07593933 -0.013728115 -0.129168
-0.17696673 0.013126862 -0.036107883 -0.09032397 -0.0145841595 -0.10838466 -0.085336134 -0.030689485
-0.11184687 -0.06940544 0.01834729 -0.02459152 -0.03154992 -0.050708856 -0.014826466 -0.095692016
-0.13564312 -0.0388871 -0.1606952 -0.014273472 -0.046339642 0.04035674 0.0022673192 -0.0137882605
0.06718314 -0.09064564 -0.076148875 -0.03500005 0.05243116 0.039586764 0.0795627 -0.007996978
-0.013642629 0.058453385 -0.08085257 -0.058019765 0.022591917 -0.0020396935 -0.022688722 0.013926267
0.029400142 -0.028245367 -0.06960875 0.01349503 -0.09704888 0.010340735 0.115703516 0.050076686
0.13886192 -0.07119673 -0.06180222 0.04200772 -0.019321432 0.073477075 0.003009771 0.03633804
0.0342409 0.0045598685 -0.077358045 0.060474813 -0.025606228 -0.028544368 0.02060255 -0.009231634
0.011958804 0.05556287 -0.07347232 -0.010142283 0.05105081 -0.009274175 -0.03590662 0.017434513
0.03701087 -0.017677965 -0.021294793 0.014842484 -0.062222525 -0.09290804 0.08952888 -0.008876863
0.06414984 0.113803126 0.029737607 -0.011022894 0.07774454 -0.034003757 -0.0048603346 0.0057770098
0.057806086 0.012612732 -0.008801923 0.0016475669 -0.053369265 -0.03356109 0.028813459 -0.058697935
0.07836108 -0.010458923 0.04161159 0.020736387 0.010793842 -0.0049337554 0.006740314 0.018257644
0.043890912 0.030617846 -0.0030998064 -0.0053914012 0.017132604 -0.03746588 -0.018794442 -0.03643954
-0.025065536 0.016857125 0.021997772 -0.021253143 -0.039120495 -0.0034914156 0.06351385 -0.008819601
0.018647602 0.0063158027 -0.009963093 0.04244156 0.03819062 0.008223617 -0.016975759 0.0043547004
-0.029452186 -0.036915895 0.071911186 -0.03952369 0.008172157 -0.029868621 -0.016145937 -0.0047196546
0.018924171 -0.03348003 -0.017484566 0.044539202 0.024456903 -0.036783963 0.011899168 0.03832606
0.025303332 -0.025814475 -0.0648178 -0.025869047 0.044253543 -0.02649403 -0.049515165 -0.026553707

layer1.conv1.weight f4 [4, 28, 3, 3]
00000000: 483b 873d c162 a2bd 1c7b 853d d75c 75bd
00000010: 1919 00bd 67e5 5e3d 758a 753c 7fd8 f23c
00000020: 9ec7 c03b 4369 5a3a 1beb edbc 4497 6ebd
00000030: 3512 b4bc 80af 08bb 70c1 89bc 7e7d 71bd
00000040: afb9 f23d 6f5a 2d3d 4f60 a03d 1c26 be3b
00000050: b266 99bd f407 a83d 9c98 81bd 30f1 09bd
00000060: c36f 3fbc 6a8b eb3c 40cd 9bbc 72d8 10bd
00000070: 6ffe fa3c af57 c23d 8d79 08bd 3493 b0bd
00000080: d824 98bc 5c45 f13c 5ee4 773d db27 3d3c
00000090: 4cdd 36bd 5cb2 873d 39d8 963d cd1f 223c
000000a0: b82b 253d 4c43 fe3b d5f8 3bbc 8184 b1bc
000000b0: caae 08bd 6c13 88bd 3dd8 91bd c21b 0f3b
000000c0: 6c05 7b3d 38e8 13bd b875 88bc c571 633d
000000d0: 2c32 8d3d 5457 be3c 692b d0bb 0f7b b13d
000000e0: c15b 26bc 488d 06bd f395 2e3d 10f6 1c3d
000000f0: d96c ccbd 5d60 cdbc 48f8 413d 589d cb3c
00000100: e0af 89bc 4fd7 243e fc36 5d3a 08b3 4dbd
00000110: 602b c4bc d742 fabc ca64 24bd eb14 02be
00000120: ba8c d93c c533 a63d 71ec 2b3d fc08 ec3c
00000130: b6bd 8cbc f132 30bd 33a1 6739 437d abbb
00000140: 84ca a2bd 4f47 2ebd 8222 c2bc 75e4 a83d
00000150: c878 11bd 9633 783c 8d18 b83d 67ce 0c3d
00000160: a07a cf3d 4251 e7bd e59a 14bd eb78 d1bd
00000170: ed95 37bd 294f 7abd 9b57 afbd 4508 1bbd
00000180: 957f 8d3d 52ed 0b3d b2f9 2d3e 2ea1 05bd
00000190: eebd dabd d8c6 dfbc 5bb4 9d3d 46da 343d
000001a0: 0d54 4d3d 4a17 7b3d 3fca 85bc 1e4c a3bd
000001b0: 9587 05bc 3b2b c33d 532f c0bc 4a10 8b3d
000001c0: 99e7 8a3d 06a6 833d 8672 62bd 40f4 ccbd
000001d0: 8e25 a1bd c042 7cbd bb49 a1bc 8b10 b53c
000001e0: 7fca e13c eb06 e2bc 0de0 18bd 05f7 4ebd
000001f0: 63c9 6c3d dc23 36bd 4b96 9fbc 798f 24bd
00000200: bdc0 833d 39cc f73b d04c 023d 1704 ed3d
00000210: 6548 863d 7f65 0bbc d20f 1cbd 40c7 213d
00000220: 3925 6cbd 974a 70bb 469c 4b3c ebc6 c8bd
00000230: 6797 99bd 7379 873c 353a 333d 3f5a c43d
00000240: 1cbc 0dbd b9dd b7bd 320c dcbd ff77 18bd
00000250: b420 f3bc 5925 df3c 838f 063d d74d db3d
00000260: 2eed 6b3d 88f3 59bc b8b7 ab3c 7547 01bc
00000270: 3199 8bbd c442 f13d 6c4a e43c d814 a2bd
00000280: 6c9d 3bbc b150 3dbd 3a07 ec3c 8f5b 973d
00000290: 199c 3d3c d4b3 86bc 87ee 56bb 5887 f1bd
000002a0: bad6 ad3c 8f43 383d ba97 2c3d e54b ce3c
000002b0: b67c f0ba af98 0a3c 9542 95bd c88a e13c
000002c0: 605e a1bc 1047 f2bc add2 3e3d d13a 383d
000002d0: 3158 eb3c 91b7 483c ac55 3a3d f821 343c
000002e0: 239f b1bc 5b45 babd f320 dfbc 1375 80bd
000002f0: 35c2 ce3c d0c3 4dbd e6d9 f5bb 939f 163b
00000300: c442 6bbd 32ea e33c 7be2 ba3d 468b 8a3c
00000310: 7340 203d 922d 9e3d 4324 d3bc 2425 703d
00000320: fd61 36bd 1ae1 53bc 86b7 89bc 0244 bd3d
00000330: 70a3 b6bd d973 853d b89b b83d acb4 e9bc
00000340: f6a5 df3a 8bb7 b2bc 6ec3 fb3d db8c 013e
00000350: 1067 dc3d 2081 1dbc 913e 423c 9264 ecbc
00000360: 8268 a03d dfc9 34bd 04bf d7bd bf5c ca3c
00000370: 7fe0 92bd 1f68 bcbb c04b 0bbc 2ca3 b63c
00000380: 44e9 943d a9a9 d7bd b058 9c3c 3aa4 0abd
00000390: 8a9e bd3d 5151 57bc 9fd7 f33d 112c be3d
000003a0: b5dc af3c 5993 d8bd 4a8e 733d 0606 cf3c
000003b0: 038d 933d 3c46 b8bb 479d c8bd b3b8 96bd
000003c0: 323e 823c 02a2 8ebd c163 063d dcd6 69bd
000003d0: 9f4f 973b 9e9f 943d 30c8 483d 331e 743d
000003e0: 2f68 1dbd 7214 963d cdfb 53bd 3617 8bbd
000003f0: bfe7 543c 52b4 6c3d 9f9e 473c 773a d73c
0.06603104 -0.07928992 0.06517622 -0.059902992 -0.031273935 0.054417994 0.014986624 0.029644249
0.005883171 0.0008331725 -0.029042771 -0.058249727 -0.021981338 -0.002085656 -0.016815871 -0.05895757
0.118518226 0.042322572 0.078308694 0.005802883 -0.07490291 0.08204642 -0.06327936 -0.03367728
-0.011684361 0.028753001 -0.01901877 -0.03536267 0.030638902 0.094893806 -0.033319045 -0.08621827
-0.018572256 0.029452018 0.060520522 0.011545147 -0.04464464 0.06625816 0.0736546 0.009895277
0.040324897 0.0077594873 -0.0114729 -0.021669628 -0.033369817 -0.066443294 -0.07121322 0.0021836613
0.061284468 -0.036110133 -0.016657695 0.05552842 0.06894335 0.023235 -0.006352831 0.0866605
-0.010153712 -0.03284958 0.04262347 0.0383206 -0.099816985 -0.025070364 0.04735592 0.0248553
-0.016807497 0.16097759 0.0008438674 -0.050219566 -0.023946464 -0.03054945 -0.040135182 -0.12703292
0.026556361 0.08115343 0.041973535 0.028812878 -0.017180305 -0.04301733 0.00022089928 -0.005233438
-0.07948783 -0.042548474 -0.023698095 0.082467 -0.035515577 0.015149018 0.08989058 0.034376528
0.10130811 -0.112947956 -0.03628053 -0.102281414 -0.044820715 -0.06111065 -0.08561631 -0.037849683
0.069091 0.034161873 0.16989782 -0.032624416 -0.106807575 -0.027316496 0.07700416 0.044153474
0.050128985 0.061301507 -0.01633179 -0.079735026 -0.008150001 0.0952973 -0.023460066 0.06790216
0.06782455 0.06428151 -0.055285 -0.100075245 -0.07868491 -0.061587095 -0.019688478 0.022102615
0.027562378 -0.02759119 -0.037323046 -0.050528545 0.057809245 -0.044467792 -0.019480845 -0.04017589
0.06433246 0.007562187 0.031811535 0.11573046 0.06556777 -0.008508085 -0.038101025 0.03949666
-0.057652686 -0.0036665553 0.012427395 -0.098035656 -0.07499581 0.016537404 0.043756682 0.095875256
-0.034603223 -0.08977837 -0.107445136 -0.037223812 -0.02967868 0.027239488 0.032851707 0.10708206
0.05759924 -0.013302691 0.020961627 -0.007890572 -0.06816328 0.11780313 0.027867518 -0.07914132
-0.0114511065 -0.04621953 0.02881204 0.0739051 0.011572861 -0.01644317 -0.0032795982 -0.11793393
0.021220554 0.044986304 0.042136885 0.025182674 -0.0018347714 0.008459254 -0.0728809 0.027531996
-0.019698322 -0.0295749 0.046587635 0.044977967 0.028728576 0.012250797 0.04549186 0.010994427
-0.021682328 -0.0909526 -0.027237391 -0.0627233 0.02523909 -0.05023557 -0.007502782 0.0022983297
-0.05743672 0.027821634 0.09125229 0.016912114 0.039123964 0.077235356 -0.025774127 0.05862917
-0.044527043 -0.012932086 -0.016811144 0.09241487 -0.08917892 0.06516237 0.09014076 -0.028528534
0.001706301 -0.021816036 0.12293135 0.12651388 0.10761845 -0.009613305 0.011855737 -0.02885655
0.07832433 -0.04413783 -0.1053448 0.024702428 -0.071717255 -0.005749717 -0.008501947 0.022294603
0.072710544 -0.10530407 0.019085258 -0.033848025 0.092587546 -0.013141946 0.11906361 0.09285749
0.021467546 -0.10574979 0.05946187 0.025271427 0.0720463 -0.005623607 -0.09795623 -0.07359447
0.015898798 -0.06964494 0.032809976 -0.05708967 0.004617646 0.07257007 0.04901904 0.059599113
-0.038429435 0.073281184 -0.051753808 -0.067915365 0.012994706 0.057789154 0.012183814 0.026272995

layer1.bn1.weight f4 [4]
00000000: 3fb9 823f 4740 853f 7b17 773f 085f 753f
1.0212783 1.0410241 0.96520203 0.9584813

layer1.bn1.bias f4 [4]
00000000: 9373 873d 1d54 4ebc 1d17 e9bc ae63 80be
0.06613841 -0.012593296 -0.028453404 -0.2507605

layer1.bn1.running_mean f4 [4]
00000000: 5aae 7c3e bc91 4c3c c9f5 b3be ffc5 eb3d
0.24675885 0.012485918 -0.35148457 0.11512374

layer1.bn1.running_var f4 [4]
00000000: 9efa ee3d 5826 c73d e424 ae3e be22 fe3e
0.11668895 0.0972411 0.3401252 0.4963588

layer1.conv2.weight f4 [4, 4, 3, 3]
00000000: 56af 143e 7df5 0b3e f561 00be 6a74 df3d
00000010: d806 8a3d 6abc 45bd c576 20be 3327 fcbd
00000020: b268 52bd 817b b9bc 8fad 1cbe 1789 04be
00000030: b0da de3d 625a a7bd d060 d4bd fd4f 673d
00000040: ae57 4c3e e8b2 abbc fade 48bd 00fd 4cbc
00000050: 3177 973d 2a97 5a3d 3296 d7bd 135a 1f3d
00000060: e287 19be 37b4 86bd 92cf 07bb 7652 94bd
00000070: 2e99 393e f2d8 223e 1d19 313c 8c27 f93b
00000080: 5deb a6bd a89d 29bd 94be bc3d 2d8a ec3d
00000090: ae3b 893d 4814 883c 19d6 6c3a 195b 0dbe
000000a0: dc34 fdbd 508a 31bd 1350 46bd fdc4 34be
000000b0: 1160 09be 227c 5abd 9bf0 283e 94d0 02be
000000c0: 204b 853c 25ac c23d 107b 9bbc 1041 193e
000000d0: f0fe f5bd 612f bdbd 031a be3c 8906 7ebc
000000e0: c44e e0bd 5b8b 1a3d fed0 353c 60b3 f13d
000000f0: 3f0f 5d3e 36c8 243d 124f 033e e0fa b4bb
00000100: f3e8 c5bd 7fc7 883d be3f b1bc 9c7f da3d
00000110: de87 03be bc95 34bd 473d d7bc 35db 05bd
00000120: b894 e7bc a00c e23b deed 2b3e ca42 cbbd
00000130: fd45 b33c 71ad 3f3e c597 21be 60a8 963d
00000140: d917 543e a2c6 eb3d 62a5 1cbd 4c1f ecbc
00000150: 4a32 d4bd b540 c2ba 9490 013d ab59 62bd
00000160: 9c70 0e3c 7cad 00be 1e01 ccbd a7c0 d3bc
00000170: 5840 263c f5d4 a03d 63e8 923d d01e 10bd
00000180: e357 d73d 7b22 073e 8f6a 803d ed48 4cbd
00000190: 1096 0a3d 8caf 0abe 1ebb 2bbd caf6 b7bd
000001a0: 70c9 02bd d97c 84bc f05a 693c dc90 22be
000001b0: 2074 dfbd 3a92 d93b d27a aabc a18f c73c
000001c0: a0ed b13c 4649 393d eb8b 733d b21e 4c3d
000001d0: 0d6e ab3d 0ec0 e0bd 9d5d 9fbd 2d6b af3d
000001e0: ec9a fc3b 6a96 c43d 109a 14be 03bd ad3d
000001f0: 94d9 773b 8eb6 6f3d bff4 263e f3df 743e
00000200: f15b 223d 8617 813e 3503 033e c5a7 cd3d
00000210: ebe8 e53d afb4 0b3c d523 043e 0ed2 843c
00000220: 60a4 ccbd 0426 e9bd d3ed 80bd 89a2 32bd
00000230: 7044 78be 415f cebb 1313 28be 152c 423c
0.1452001 0.13667865 -0.12537368 0.10910876 0.067395866 -0.04827539 -0.15670307 -0.12312164
-0.051369376 -0.022641899 -0.15300582 -0.1294292 0.10881555 -0.08171536 -0.10370028 0.056472767
0.19955322 -0.020959333 -0.049040772 -0.012511492 0.07395781 0.053366818 -0.10526694 0.03890426
-0.14993241 -0.06577342 -0.0020723087 -0.07242291 0.1812484 0.1590307 0.01080921 0.0076035913
-0.08150361 -0.04141012 0.092160374 0.115497924 0.06700836 0.016611233 0.00090345886 -0.13804282
-0.12363598 -0.043344796 -0.04841621 -0.1765327 -0.13415553 -0.05334104 0.16498034 -0.12774879
0.016271174 0.0950549 -0.01897958 0.14966226 -0.12011516 -0.092375524 0.023205763 -0.015504488
-0.10952523 0.037730556 0.011097191 0.11801791 0.21587847 0.04023 0.12823132 -0.0055230707
-0.09663572 0.06678676 -0.02163684 0.10668871 -0.12844798 -0.04408811 -0.026274337 -0.032679755
-0.028269157 0.0068984777 0.16789958 -0.099248484 0.021883959 0.18718506 -0.15780552 0.07356334
0.20712222 0.115124956 -0.03824366 -0.028823517 -0.103611544 -0.001482031 0.03163202 -0.055261295
0.00869384 -0.12566179 -0.099611506 -0.0258487 0.010147177 0.07853118 0.071732305 -0.035185635
0.1051481 0.13196747 0.062703244 -0.049874235 0.033834517 -0.13543528 -0.041926496 -0.08982618
-0.031930387 -0.016172813 0.014242873 -0.15875572 -0.10910821 0.006639746 -0.020810518 0.02436048
0.021719754 0.045235895 0.059459608 0.04983396 0.083706 -0.109741315 -0.07781527 0.08565364
0.007708898 0.09599002 -0.14511895 0.08483317 0.0037818896 0.058523707 0.163043 0.23913555
0.039638463 0.2521326 0.12794192 0.10041765 0.11226066 0.008526965 0.12904294 0.016213443
-0.099922895 -0.11384204 -0.06295361 -0.043612037 -0.24244857 -0.0062979762 -0.16413526 0.01185133

layer1.bn2.weight f4 [4]
00000000: 1d11 933f f60f 873f 71ff 723f 4d0c 903f
1.1489598 1.0551746 0.9492102 1.1253754

layer1.bn2.bias f4 [4]
00000000: 1c6c 9ebd e11c 793e a0cf 1b3c a4b1 9d3e
-0.07735464 0.24327423 0.009509951 0.30799592

layer1.bn2.running_mean f4 [4]
00000000: 8352 72bd cedc c7bd f68c a83d 09fd a73e
-0.05916072 -0.09758912 0.08230011 0.32810238

layer1.bn2.running_var f4 [4]
00000000: 4990 813d 49dc 733e 4036 9c3d 7e78 d63e
0.06326348 0.23814501 0.07627535 0.41888803

layer1.shortcut.0.weight f4 [4, 28, 1, 1]
00000000: e7ba 433e f687 563e 8295 0f3d 6408 57be
00000010: 7567 05be 03e8 3cba 4b4e dc3b 88af 3dbe
00000020: e6f8 15bd 09f9 dbbd cc59 64bd 1fed 5dbc
00000030: 3151 973c c826 043e 2a4c 923d 4816 a93c
00000040: 667c 8c3c b621 a43d 590a 6dbe 067d 073e
00000050: 9076 f4bd 2ff8 7a3c 528b 7d3d d53b 9c3b
00000060: e6ed 263e cfa6 2b3c 7a83 ae3b 4baf ddbd
00000070: c791 48be 565a fc3d 9bcf 483c 50f4 8e3d
00000080: 5a94 39be 752b 343e c73d a73d 0d3e 223d
00000090: bf78 54bd 1be5 d5bd 9396 86bd ce2c 4bbd
000000a0: 2755 c33c 1c20 6b3d 08fa 1abe 2904 dc3d
000000b0: 7b08 1fbe 21a4 95bd 0a46 42be a391 debd
000000c0: c7da 3e3d 5c5c dfbd 219a 72be d723 6abc
000000d0: c615 173b d12a 84bd 6e47 103e b403 a03d
000000e0: c999 95bd 4e89 81bc 673b 153c 1fae 573e
000000f0: 032d 7b3c 846b e53d 5730 43bd 2496 5c3e
00000100: 9a2e a5bc 5da6 d8bc 646c fdbd 6a79 5c3d
00000110: 2a4e 1b3b 2ac0 a2bd 169f a03d 4456 be3d
00000120: d7e5 02be 8e60 ccbe 1c34 f8bd 95e4 be3c
00000130: b4ac 763e 13b4 103d 44a2 82be 6b11 1abe
00000140: d288 753d 533a 143e 3d29 473e e5bf 0bbd
00000150: d834 a6bc 8b9f 67bd e956 893b c1ad c63c
00000160: 8092 203e 0ff1 0c3e e875 d13a 131f 613b
00000170: 0b0e 363d 753d 67bd 712f 5abe cf50 33be
00000180: 8338 4b3d 9dd3 2b3d d694 74be 0040 163e
00000190: 17da 19be 6645 c43d c4c5 75bc 0b6e 5fbe
000001a0: ef8c 19be 6eb7 e5bd e6ed 9ebe f094 0abe
000001b0: 53b7 37bd 75d5 a3bd c1cf bcbd a532 08be
0.19114266 0.20950302 0.03505469 -0.20999295 -0.13027747 -0.00072062033 0.0067232004 -0.18523991
-0.03661432 -0.10740859 -0.0557497 -0.013545304 0.018471332 0.12905419 0.071434334 0.020640507
0.017149162 0.08014242 -0.23148479 0.13231286 -0.119366765 0.015317961 0.061900444 0.0047678747
0.16301689 0.010476782 0.005325732 -0.1082445 -0.1958686 0.12321918 0.012256528 0.06980193
-0.18122998 0.17594703 0.0816608 0.039609957 -0.051872965 -0.10444089 -0.065716885 -0.049603276
0.023844315 0.05740367 -0.15134442 0.10742981 -0.15530579 -0.07306696 -0.1897203 -0.10867622
0.04659536 -0.10906288 -0.23691608 -0.014290771 0.002305375 -0.06453479 0.14089748 0.07813206
-0.07304723 -0.015812542 0.009108401 0.21062516 0.015330556 0.112021476 -0.047653522 0.21541649
-0.020163823 -0.026446516 -0.123741895 0.053826727 0.0023697712 -0.07946809 0.07842843 0.092937976
-0.1278299 -0.39917415 -0.12119314 0.023302356 0.24089319 0.035327982 -0.25514424 -0.15045707
0.059944935 0.14475374 0.19449325 -0.03411855 -0.02028887 -0.056548636 0.0041912687 0.024252774
0.15680885 0.13763832 0.0015980573 0.0034350797 0.044446986 -0.056455094 -0.2130716 -0.17511295
0.04961444 0.041949857 -0.23884901 0.14672852 -0.15024601 0.09583549 -0.015000764 -0.21819322
-0.14995168 -0.11216627 -0.31040877 -0.13533378 -0.044852566 -0.07999698 -0.092193134 -0.1330057

layer1.shortcut.1.weight f4 [4]
00000000: 4208 743f 5fb7 763f d359 5e3f fade 043f
0.953251 0.9637355 0.8685581 0.51902735

layer1.shortcut.1.bias f4 [4]
00000000: 1c6c 9ebd e11c 793e a0cf 1b3c a4b1 9d3e
-0.07735464 0.24327423 0.009509951 0.30799592

layer1.shortcut.1.running_mean f4 [4]
00000000: 371d 92bd e51f a5be 4739 713d debf 20bf
-0.071344785 -0.32250896 0.058892515 -0.62792766

layer1.shortcut.1.running_var f4 [4]
00000000: 329b 693e 9646 cc3e a2ef 3c3f 76fd 723e
0.22813109 0.39897603 0.7380315 0.237295

layer2.conv1.weight f4 [8, 4, 3, 3]
00000000: 08c6 32bc 9644 293d acb4 79bc 44ed 24bd
00000010: 344e 163d 4c77 b1bb f5e1 12bd e12a 02be
00000020: e151 87bd 03a7 4fbe dff6 b33d fac1 a63d
00000030: bba5 fdbd c86e 113e 0943 433e 1c8a ce3b
00000040: 6a46 c73d cea4 a53d 4e27 91bc 1eec 633e
00000050: 9c11 b43c 900f d0bc cc22 c93d 6ced 953d
00000060: 7eed 18bd df33 4ebd 10ad 6e3d 3fee 833d
00000070: bf5a d63d 96c0 b6bd 1c57 e03d 133b e33c
00000080: 66ce f8bd e69b 6c3d 9d30 c4bd 11a6 1cbd
00000090: 5a83 ae3d c5ef e2bd 9f64 1d3d de94 0fbe
000000a0: 8041 0bbc 6340 cc3d a9b4 49be 28f6 bdbd
000000b0: a542 8a3e 68f5 023e 2d5e 5a3d c629 35be
000000c0: cb38 9c3d 3962 bfbd f573 17bd d0b6 bd3d
000000d0: 222d bf3d f5be 6b3d 8cc9 d83c 284e 313e
000000e0: 5f41 c1bb 3c25 10bd 679c df3c ce85 d93d
000000f0: e372 9e3d e962 b1bd 38c1 053d 01fa febc
00000100: 1be8 22be 0c49 8ebd 6e8e 0abe afec 843c
00000110: 2535 ce3d edd5 383e 5b15 3d3c 7c86 03be
00000120: 6517 33be d372 cc3c 2489 b5bd 6a61 263d
00000130: 5c06 5ebd 8078 60bc b101 1a3e 8d5e 2abd
00000140: 5dde 0bbe fdef 2c3d 1390 013c 4e69 c13d
00000150: e4a6 1ebe 4a17 103e da43 033e 1601 0fbd
00000160: 473a b4bd ea36 463d 5e7a 813e d8e7 8e3d
00000170: e55c f53d f458 de3d 0fd5 19be 5945 bb3d
00000180: 405a 2c3e 1942 c9bd 8bea 0f3e c475 483e
00000190: 3e68 e43c 50f9 14be c494 693c ef29 c9bd
000001a0: bfae 14be 2244 36bc 7f69 16be ab39 113d
000001b0: 8717 383e da92 fb3d 4fe1 43bc ab3d 403e
000001c0: 892c 91bd d0bf e33c 6ce9 043e 23b8 e23d
000001d0: 29d6 323c e34b 1dbe d91e cebc ef71 a63d
000001e0: 72d0 17be 845b 10be 17a8 943d 9248 fa3d
000001f0: a0c8 c6bc 681b 9cbd 9f27 8e3c 266d 003d
00000200: 5e45 7f3d 1d85 0a3d f5e0 26bd 2ccf 06bd
00000210: 5920 413d fb21 18bd bda0 3abc 4a15 ec3c
00000220: ea65 dd3d 0082 3fbc b90b 3ebd 9ca7 703e
00000230: 3eb2 e6bc b1f3 63be 9a80 14bd ad58 053e
00000240: 1368 9c3d 14a1 0f3d 91da 22bc 6f92 643e
00000250: c6a3 8a3d af60 243c 916a 2d3e 8e80 6bbc
00000260: 7393 383e a898 5cbd 4b4b ad3c 4ac5 483c
00000270: 2733 213c 5154 3ebd 2623 3a3d f945 10be
00000280: 6ee5 47bd c3b4 383c c77a 6cbe 675a 95bd
00000290: b014 58be acd7 babd 7880 6dbd d6f6 5a3d
000002a0: c9ec c33d 4468 243c c1d5 653d 0691 c9bd
000002b0: 13dd f0bd 8132 a23d bb43 833d dfe2 d63c
000002c0: 4a5f 6c3a 534a 563b 4d62 d4bd c5ac 57be
000002d0: 7f10 b6bc c0a0 a9bd a87e 86bd 5f36 d83d
000002e0: ed4f ccbc eccf 2f3b 54c5 63be 2473 76be
000002f0: 99b0 f7bd 4750 7c3e 0b13 2c3e 4a45 283c
00000300: 198c 353e 2c00 603d c6a5 2b3d 8b2e 533c
00000310: 008c f3bb 5045 033e 366a a53c a3e3 b03d
00000320: fcfb bbbd ff40 0dbe f5cb 01be 960b 223c
00000330: 3c48 b33c f520 833d d476 783d 65e2 05bd
00000340: 91a1 65bd f82a 89bd 7133 cb3a 70c4 b0bd
00000350: 0add 3cbe fd40 fe3d 06b8 733d 61c0 ad3d
00000360: 3bfc 2e3e 7b2e 69bd 1525 0c3d e458 82bc
00000370: c94e 14be a7e9 1fbe 9a17 113e b4c9 28be
00000380: bce8 f8bd 0de1 ac3d 2a92 9c3d 9deb d4bd
00000390: 12d2 4b3d 1858 81bd 970c 79bb 906b 9abd
000003a0: 5967 783d 5ac0 89bd 2ff0 a2bd 408b 003e
000003b0: 2793 ba3c f380 b03d b468 bd3d aef7 a4bc
000003c0: dd6d a2bd ef81 f03d 629e 3a3d ba2d fa3d
000003d0: bdaa 563c f54b 2cbe 6ed4 2fbc 3a02 503d
000003e0: d081 0e3e 2c6b 4d3d a054 bd3c c473 ad3d
000003f0: 3304 17bd 3095 733e bf00 5b3d 4c2b 103d
-0.010911472 0.041325174 -0.015240829 -0.040265337 0.036695674 -0.0054158326 -0.03586002 -0.1271167
-0.06607414 -0.20278554 0.08787321 0.08142467 -0.12385126 0.14202416 0.1906854 0.006303085
0.09730227 0.080880746 -0.017718937 0.2225804 0.021981053 -0.025398046 0.0982109 0.07320675
-0.037335865 -0.050342437 0.058270514 0.06441926 0.10466527 -0.089234516 0.10954115 0.02773813
-0.121487424 0.057765864 -0.09579585 -0.03824431 0.08521147 -0.11080889 0.038426038 -0.14021632
-0.008499503 0.09973218 -0.19697823 -0.09275466 0.2700397 0.12788928 0.05331247 -0.17691717
0.0762802 -0.09344906 -0.03697582 0.09263384 0.0933478 0.057555158 0.026463293 0.1731497
-0.0058976854 -0.03519176 0.027296258 0.10621224 0.07736757 -0.08661444 0.03265497 -0.03112507
-0.15908854 -0.06947526 -0.13530895 0.01622614 0.1006873 0.18050356 0.011540736 -0.1284427
-0.17489393 0.024957096 -0.08864048 0.040620245 -0.054205284 -0.013700604 0.15039708 -0.041594077
-0.13659044 0.04222106 0.007907885 0.094439134 -0.15493351 0.14071384 0.12818852 -0.034913145
-0.08800178 0.048392214 0.2528867 0.069778144 0.11980609 0.1085681 -0.15022682 0.091440864
0.16831303 -0.0982706 0.14054315 0.19576174 0.027881738 -0.1454823 0.01425666 -0.09822451
-0.14519785 -0.011124643 -0.14688681 0.035455387 0.17977725 0.12283869 -0.011955573 0.18773524
-0.070885725 0.027801424 0.12979668 0.110702775 0.010915318 -0.1536098 -0.025161194 0.081272
-0.1482561 -0.1409741 0.07258623 0.12220873 -0.024265587 -0.07622415 0.017352877 0.031354092
0.062322013 0.033818353 -0.04074188 -0.03291242 0.04714999 -0.03714178 -0.011390862 0.028818745
0.10810454 -0.011688709 -0.0463979 0.23501438 -0.028161164 -0.2226093 -0.036255457 0.13022108
0.07637038 0.035065725 -0.009939806 0.22321485 0.067695186 0.010032817 0.16935183 -0.014373912
0.18024997 -0.05385652 0.021154067 0.012254069 0.009838856 -0.04646713 0.045443676 -0.14089192
-0.048802786 0.011273566 -0.23093711 -0.072926335 -0.21101642 -0.091231674 -0.057983845 0.053458057
0.095666476 0.0100346245 0.056112055 -0.09842114 -0.117609166 0.07919789 0.06409403 0.026231227
0.0009016885 0.003269811 -0.10370312 -0.21062 -0.022224663 -0.08282614 -0.065671265 0.105572455
-0.024940455 0.0026826812 -0.22243243 -0.2406736 -0.1209423 0.24639998 0.1680414 0.010270426
0.17729224 0.054687664 0.04190614 0.012889515 -0.007432461 0.1281941 0.020192247 0.08637168
-0.091789216 -0.13794325 -0.1267546 0.009890458 0.02188503 0.064027704 0.0606602 -0.03268661
-0.056062285 -0.06697649 0.0015503002 -0.086312175 -0.18443695 0.12414739 0.05950167 0.08483959
0.17088406 -0.056929093 0.03421505 -0.015911527 -0.14483179 -0.15616475 0.1416916 -0.16483194
-0.121537656 0.084413625 0.07645066 -0.10396502 0.049760886 -0.06315631 -0.003800189 -0.07540047
0.060645435 -0.06726141 -0.07955968 0.1255312 0.022775246 0.08618345 0.09248486 -0.020137634
-0.07931111 0.11743533 0.045561202 0.12215753 0.013102231 -0.1682585 -0.0107317995 0.050783373
0.13916707 0.050151035 0.023111641 0.08469346 -0.03686924 0.2378738 0.05346751 0.03519754

layer2.bn1.weight f4 [8]
00000000: 0eb9 723f d4f7 533f c3bb 783f ba1e 7c3f
00000010: 698a 943f a60b 7f3f 40a9 743f b3bf 543f
0.9481362 0.8280003 0.971615 0.98484385 1.160474 0.9962715 0.95570755 0.8310501

layer2.bn1.bias f4 [8]
00000000: 98b1 2cbe cf42 de3d cde2 c43e 2eed 813d
00000010: 1409 453d 3ae1 673c 809b 84bd 030e 51bf
-0.16864622 0.108525865 0.38454285 0.063440666 0.04810436 0.014152819 -0.06474972 -0.81662005

layer2.bn1.running_mean f4 [8]
00000000: 343d 003f 5858 113e 7418 1e3e fb8b 873e
00000010: c6df c6be 4b2f 7e3e 0563 843e 8aa2 373f
0.5009339 0.14193857 0.15439016 0.26473984 -0.388426 0.24822728 0.25856796 0.7173239

layer2.bn1.running_var f4 [8]
00000000: 5fdf 453f b173 463e 3797 013f cbbd 023f
00000010: cee0 f63f d907 c23f 4a46 223f 944f 8f3e
0.7729396 0.1938007 0.5062136 0.5107085 1.9287355 1.5158645 0.633885 0.279904

layer2.conv2.weight f4 [8, 8, 3, 3]
00000000: bf6a e1bc 86cf afbd fa22 cd3d 239b fcbd
00000010: 5358 80bd d2b0 20bc 448a aa3d 3c1c 8dbd
00000020: b342 be3d d228 83bd 53a0 c23d ba82 673d
00000030: afba 40bd 59b2 cd3c 3e1f d93c 9f33 89bd
00000040: ead8 18bd 5759 cebb 029c a23d c1cb 163c
00000050: 9f55 033d 8271 81bd 3290 aebd 575b 44bd
00000060: 3c7d b03b aa2e d93c cdf9 f6bc a3d5 73bd
00000070: d02f 2a3d b905 b7bc e60d f23c 1624 813e
00000080: 8c6d bb3d 9d2d d5bc fd22 5bbd 285d 5a3d
00000090: 18c7 9e3d f7e4 343e 5384 283d 8ad0 0fbc
000000a0: ad84 d6bc 6637 fcbd 906e 82bd 4ea4 0d3e
000000b0: a2b7 3fbd 5e26 10bb 11bf 963d 9e52 05bd
000000c0: f58f 583d 786d 883d 1e95 db3d 45d3 9f3d
000000d0: 85bf 683b 335a d93c 5812 4dbe 1637 abbc
000000e0: 7166 dfbc 35c0 b23d 95d3 6fbd 5e58 afbc
000000f0: 15fb 0e3d c4aa 313d 6fc7 be3c 71ba 973d
00000100: fad4 073e 6247 e43c d1cc 1c3e 6d71 8a3d
00000110: 2a68 153e fe63 163d bc26 9c3c 7a24 62bc
00000120: 28da c43d c47e 53be 442c 07be 14cb 913d
00000130: 8c0b c0bc 3723 a1bd e50e debd 9481 3ebc
00000140: fbc4 6dbd 0195 8dbd 0fa3 493e 2184 f63c
00000150: 7e23 893b 68d4 05bd fa42 8bbc 8d7c 2bbd
00000160: bcc9 f4bc 2c11 35bd ca1c eebd 5985 a63c
00000170: 64b6 013b 453d d03d 844e 523d a3d3 043e
00000180: e2b7 d0bd 17c9 863d dac5 d7bb fe3d 1d3d
00000190: 35e9 fcbc d42f 33be c2ea cabc 658c 99bd
000001a0: b561 f7bd 84ca e63c 73d2 9bbc 400f 59bd
000001b0: 6b6d ac3d 773c fb3b 6d66 2c3d 6648 a23c
000001c0: 6939 7f3d 5e01 e23d 2e5a 6b3c 9c41 ab3b
000001d0: 1fb7 00be 4efd cbbd 5df8 0bbe 2fc1 64be
000001e0: f4e9 bdbd 6e7e 04bd 267b 4e3d eed8 f6bd
000001f0: d6e5 b4bd 9825 d93c 959b f13d 761a 9c3c
00000200: 989d 9fbd c512 7f3c 02e2 58bd 12fe 76bd
00000210: 157c 58bc 028c dbbc 40d5 463e ce74 1c3d
00000220: 907c 813d c256 44bb 3758 aabd 492f 83bc
00000230: 6858 023d 7189 26be 2454 453d b67c 2ebc
00000240: 3820 833a 40f1 5fbd 7c08 2b3d 1ec6 89bd
00000250: 6aa6 21bd ab33 453d 6dc8 9ebd 32df 5e3d
00000260: 4434 51bd 6e2c e3bd bb73 fd3c 7426 a93d
00000270: 9b95 8ebd 6c06 bbbd 4b1f 643d f689 ff3d
00000280: 796f 383b e0b9 b4bd 1f2b a2bd 748f a7bd
00000290: e1d1 713d 8d3d 083b c1d7 763d 4799 53bd
000002a0: 124d 593d 5bf8 b43d 6db8 3e3b 3223 823d
000002b0: be6d 443d 2bc6 f6bd 72a8 c13d 9c6c f1bd
000002c0: 6b03 f7bd c40c 39bc 7146 bc3d 3da9 b43d
000002d0: 8060 85bd eef7 30be c1eb 0a3e fff2 01be
000002e0: c41c dabd b810 873a d8f1 07bd 6247 9c3c
000002f0: f736 fa3d 2943 a8bd 8d9c 63bb 7746 143e
00000300: 16de 58bc 40f7 d13d c324 c7bc 5bda 66bd
00000310: d4f0 a63c ffda ba3c 633c 4d3d a440 973b
00000320: 9d59 1a3e 333d 723d 1b34 8c3c d528 da3d
00000330: 7ef3 1a3d 4b20 76bd 47fe 0ebd 2fa9 45bc
00000340: f8a3 32be 0853 d43d 5ad7 573d ccd7 09be
00000350: 06e7 293d a65e 56bd d957 243d 24d4 c93c
00000360: 66c3 9fbc 7f89 723b 5a11 ebbd 5856 983a
00000370: 87e3 a43d 32c7 c6bd e16d 193e 073e cf3d
00000380: 0902 69bd ae7b 8cbc bc64 4abd 039f f3bd
00000390: 72fa 423d ecf3 9d3c d31b a03d 69fc dd3c
000003a0: e977 bf3d b17c 663c 05ee e93b e96c a0bd
000003b0: 8b84 a0bd f04c dc3c 862a 4cbd 43f7 afbd
000003c0: 800e a7bd a48f e93d 4614 923d 2fbe 3ebc
000003d0: 239f 703d 5b1d c93d c2eb 4cbc c85d 7cbd
000003e0: fd4f 98bd 63fa f43d 52a6 c6bd 4f81 00be
000003f0: 6921 233d 2bba 4c3e e8f8 483e f2aa a1bd
-0.02751672 -0.08584504 0.10016437 -0.123342775 -0.062668465 -0.009807782 0.08327153 -0.06890151
0.092900656 -0.0640427 0.09503236 0.056521155 -0.047053035 0.025109457 0.026504155 -0.06699299
-0.03731624 -0.0062972712 0.079399124 0.009203852 0.032064077 -0.06320478 -0.08523597 -0.04793867
0.005386023 0.026511509 -0.030148411 -0.05952991 0.041549504 -0.022341596 0.029547643 0.25222844
0.09151754 -0.026022727 -0.053500164 0.053311497 0.07752818 0.17665468 0.04114182 -0.008777747
-0.026186312 -0.12315254 -0.063687444 0.13832209 -0.046805985 -0.0021995525 0.07360662 -0.032549493
0.052871663 0.066615045 0.10721801 0.07803968 0.0035514545 0.026532268 -0.20026529 -0.02090029
-0.027270528 0.08728067 -0.05855139 -0.021404441 0.03490742 0.043375745 0.023288457 0.07408608
0.13264838 0.02786607 0.15312506 0.067599155 0.14590517 0.036716454 0.019061439 -0.013802642
0.096119225 -0.20653826 -0.1320048 0.07118812 -0.023443006 -0.07868045 -0.10842685 -0.0116275735
-0.058049183 -0.06913186 0.19691108 0.0300923 0.004185139 -0.03267327 -0.01699971 -0.041866828
-0.02988135 -0.04420583 -0.11626585 0.020327257 0.0019792551 0.10167936 0.05134441 0.12971358
-0.10191323 0.065813236 -0.006584865 0.0383892 -0.03087292 -0.17498714 -0.024770144 -0.07497481
-0.12079183 0.028172739 -0.019021248 -0.05299306 0.08419307 0.00766712 0.04208987 0.019809913
0.06231061 0.11035417 0.014364762 0.005226327 -0.12569855 -0.099604234 -0.13668962 -0.22339319
-0.09273139 -0.032347135 0.050410412 -0.12053095 -0.088329 0.026507184 0.11797253 0.019055586
-0.077937305 0.01556844 -0.052949913 -0.060300894 -0.013213177 -0.02680016 0.19417286 0.03819733
0.063225865 -0.0029958938 -0.08317607 -0.016013758 0.031822592 -0.16263367 0.048175946 -0.010649851
0.0010004109 -0.054673433 0.04175614 -0.06727241 -0.039465345 0.048144978 -0.07753072 0.054412074
-0.051075235 -0.11092459 0.030938974 0.082592875 -0.06962129 -0.09132084 0.055693906 0.12477486
0.0028142615 -0.08824515 -0.07918381 -0.081816584 0.059038047 0.002078864 0.060264353 -0.05165985
0.053052016 0.088364325 0.0029101626 0.06354369 0.04795622 -0.12049516 0.094559565 -0.11788294
-0.12061199 -0.0112945475 0.09193123 0.08821342 -0.065125465 -0.17282078 0.13566495 -0.12690352
-0.10650018 0.0010304665 -0.033189625 0.019077007 0.12217515 -0.08215935 -0.0034730763 0.14480005
-0.013236543 0.10252237 -0.024309522 -0.056360584 0.020378508 0.022809504 0.050106417 0.00461586
0.15073247 0.059140395 0.01711469 0.10652319 0.03782987 -0.06008939 -0.034910467 -0.012064262
-0.17445362 0.103673995 0.05269561 -0.13461226 0.041480087 -0.052336358 0.04012284 0.02463729
-0.019502353 0.0037008224 -0.11477919 0.0011622412 0.0805121 -0.09705962 0.14983322 0.10119253
-0.056886707 -0.017148819 -0.049412474 -0.118955635 0.047602125 0.01928135 0.07817807 0.027097898
0.09349043 0.014067815 0.00713897 -0.07833273 -0.078377806 0.026892155 -0.04984524 -0.08592083
-0.081570625 0.114043504 0.07132773 -0.011642023 0.058745515 0.09820052 -0.012507381 -0.061612874
-0.074371316 0.1196182 -0.09699692 -0.12549327 0.039826784 0.19992892 0.196262 -0.07893933

layer2.bn2.weight f4 [8]
00000000: d846 9d3f 1fa6 8b3f dc5f 6a3f 0f21 8a3f
00000010: 029d 873f 33fd 853f 1c19 883f 2e8d 903f
1.2287245 1.0910071 0.9155252 1.0791339 1.059479 1.0467895 1.0632663 1.1293085

layer2.bn2.bias f4 [8]
00000000: 7ac9 7abd d7a9 243e 6645 973e 9c08 8b3d
00000010: a6a0 f5bc c8ac c03e 66ac 47be 121c 92bd
-0.0612273 0.16080414 0.29545134 0.067887515 -0.02998383 0.37631822 -0.19499359 -0.0713426

layer2.bn2.running_mean f4 [8]
00000000: 480d 973e 3640 b9be 3091 9dba fbe2 cebc
00000010: d486 653e b4be 1ebd 43ef 373e cc0e 2f3c
0.2950232 -0.36181802 -0.0012021419 -0.025254717 0.22414714 -0.038756087 0.17962365 0.01068468

layer2.bn2.running_var f4 [8]
00000000: e54c 683e 826f 673e ebf5 fe3d f865 eb3d
00000010: c463 943e 7326 853e 048e 333e d350 df3d
0.22685583 0.2260113 0.12449249 0.11494058 0.28982365 0.26005897 0.17534643 0.10904088

layer2.shortcut.0.weight f4 [8, 4, 1, 1]
00000000: 9a85 f53e 2a32 063c 1c73 063e 6279 05bf
00000010: 5bff 14be 101b d4bd 50a5 243d 4c69 893e
00000020: 4ac5 2abe 8266 973d 04d9 d73d 15f1 873e
00000030: a91d 9abd 8ac1 b83e fb4d d43e 07d9 4b3c
00000040: 2779 22bd 504a 1b3f f0b6 f2bd 05f5 ab3e
00000050: df5e 18be b62d c53e 9508 733e 38f0 753e
00000060: 4984 7a3e 6dd8 6d3e 9272 e63e c61f eb3e
00000070: 0f95 763e 785f fcbe ea3a b83e 7633 3fbe
0.47953492 0.008190671 0.13129848 -0.5213834 -0.14550535 -0.10356724 0.040196717 0.26838148
-0.16676822 0.07392599 0.10539439 0.26551118 -0.075251885 0.3608516 0.41465744 0.01244188
-0.03966632 0.60660267 -0.11851299 0.33585373 -0.1487994 0.38511437 0.23733743 0.24017417
0.24464525 0.23227091 0.45009285 0.4592268 0.24080299 -0.49291587 0.35982448 -0.18671975

layer2.shortcut.1.weight f4 [8]
00000000: a060 453f 38f5 4d3f 8a2c 603f 395d 703f
00000010: 81a7 733f 8347 6b3f 6adf 6e3f d8d7 3f3f
0.77100563 0.804523 0.8756796 0.93892246 0.95177466 0.91905993 0.9330965 0.74938726

layer2.shortcut.1.bias f4 [8]
00000000: 7ac9 7abd d7a9 243e 6645 973e 9c08 8b3d
00000010: a6a0 f5bc c8ac c03e 66ac 47be 121c 92bd
-0.0612273 0.16080414 0.29545134 0.067887515 -0.02998383 0.37631822 -0.19499359 -0.0713426

layer2.shortcut.1.running_mean f4 [8]
00000000: 1812 9dbd bfa4 9f3d fe44 983e 3699 243f
00000010: 89ce 5a3f 6af4 353f f319 963f cbb5 91be
-0.07669467 0.07795095 0.29740137 0.6429628 0.854714 0.7107607 1.1726669 -0.2845901

layer2.shortcut.1.running_var f4 [8]
00000000: 82d6 383f f5d9 dc3d 41dc a93e 14de 5e3f
00000010: 466f 8b3f 7460 8b3f 2c2c a03f 0900 023f
0.7220231 0.107837595 0.33175853 0.87057614 1.0893333 1.088881 1.251348 0.50781304

layer3.conv1.weight f4 [16, 8, 3, 3]
00000000: dd42 10bd 64d4 f23c a79a 21bd 74ff 89bc
00000010: 0e01 40bd de9b 033d ca30 0dbe 87e1 9ebc
00000020: bc8b e3bd b60f d53d 7ef4 1dbe 89e6 52be
00000030: 65f7 933c 7c8a a13d a1b5 a23d 7cf4 e13d
00000040: 774d 8c3d 07e7 233d 182f e63d df37 b8bd
00000050: 30f6 55bd 9051 163d d022 813d 9ec9 a2bd
00000060: a73a 1a3e 4d11 3d3b 5af5 ac3d 12ec 7fbd
00000070: 6f8d 47bc 3dc5 1fbd 1f4b de39 65d3 73bd
00000080: 57a9 bb3a f573 0c3e 3144 d9bd 6cef fc3c
00000090: e412 b23d 77a9 433e be95 fe3d 4fde 993c
000000a0: db6e 893d 27c9 1a3e a01c bfbc ac65 c53c
000000b0: dc9e 50bd 87e0 e43d 9094 dabd 78f4 75bc
000000c0: b240 4c3d 6c35 85bd d459 2dbd cdcc 0f3e
000000d0: 1f1d 04bd 2d1b 7cbd 6de5 1abe 4ba6 7ebc
000000e0: aded 12bd 2ce4 4d3d 1afe 8cbc 98b1 3b3d
000000f0: 6b41 26bd 7b43 95bd 13a5 b5bd 8566 45bd
00000100: 1b7c 95bc 08a2 43be 7a6b 0dbd 73b9 24bd
00000110: ec32 bebc 6cc7 c83d 19e8 cbbb b2ba 273d
00000120: ec97 b73c 3027 0ebe a8e6 a63c 88ca 34bd
00000130: 1568 503d 170c 223e 781d 9abc 4b35 0cbd
00000140: 3477 6a3d 6c9f c2bd cacc c13b 2cd8 9f3c
00000150: 4554 8cbd d354 c0bd 99b5 9abd 5ff4 efbc
00000160: 5520 15bd 8263 34bd 27e0 a3bd e562 5bbc
00000170: 898e 0cbd 82a4 53be 68e2 70bc 9160 babd
00000180: c511 35bc a473 ae3d 16be de3c e6ae 9e3d
00000190: 6970 0f3c ba40 b3bc eb4d 25be b183 b3bd
000001a0: be87 08be 8b76 2ebe 40f2 cabd bfff 2bbe
000001b0: e65e 673d a215 de3d 6d3a b73d bc5a 0abe
000001c0: d548 87bc 852b 86bc 4250 53bc 2526 e0ba
000001d0: 537a e5bd 8991 90bc 7cad 423d 5dda 2ebd
000001e0: 6820 adbb 41bd 943d 5a55 c7bd eae1 87bc
000001f0: b879 ebbd fc1f 3bbd 9818 233d f693 9b3d
00000200: 274d 6a3c 3690 103c 24fb 98bc 6032 acbd
00000210: fa03 9e3a 5432 c63c d99f 043e 38f6 b53d
00000220: e4d3 bcbc 7a30 8dbd 2a8a ecbd 4c0c 1b3d
00000230: d278 8abd 1cbb babd 475c ef3d a124 de3c
00000240: 89b3 bb3d 5a2f 63bd d35f 0ebd 8048 163e
00000250: bac6 d13d 585d a3bd 4f59 7c3d 1b01 a03c
00000260: 069b 89bd 8485 fcbc fb78 88bc 3b15 cfbc
00000270: 33f1 c1bc 3880 07bd 7eff fdbd 03d0 3f3d
00000280: f292 703a fa86 89bd be04 423c 2225 20bd
00000290: 95cb 653c 1d83 92bd 9560 ecbd 0d42 9bbb
000002a0: a9e4 51bd 82b1 fcbd 3c75 af3d 614b 923d
000002b0: d577 803d 62d7 d1bd 3fbb bb3d b495 eabb
000002c0: 5f90 11bd 433d f23d af7a 9d3d 0829 413d
000002d0: d6ad 8b3d 878c a73d 1124 52bd 1ad2 aa3d
000002e0: 39d7 20bc d7de 2bbe b14e af3a 835c ce3b
000002f0: d932 493c f734 d73c 7897 49bd 112e b4bd
00000300: b66d fe3d 2c82 babd dbb3 6dbd 8a8b 9b3d
00000310: d2d9 12bd 868a 2cbe 2501 493d 25ae 943d
00000320: c809 cfbd 52c4 d73d b694 963d 59b8 ddbc
00000330: f805 0c3d 9d83 a03d f4db 41be 513c 99bd
00000340: f934 e63d 5d84 953d 503e 1bbd 8078 89bb
00000350: df27 da3b b026 ba3d be4f b23d d831 8e3d
00000360: 5a03 3b3e 346e 3bbe 0a92 7bbd ab62 943d
00000370: f53a a3bd 3ef3 87bd 5e10 55bc f212 a43b
00000380: 392d 183e af0f aebd 6f7b 9bbc 55c4 a8bc
00000390: 99c6 a23d 787d 81bd 039a 1fbd 362d 063e
000003a0: 3dad e73c 412e bdbd b025 d53c ada0 a13c
000003b0: 7033 28bd 8d7c 5cbc 49fe 4bbd ef27 c1bd
000003c0: dcf6 443d e8d5 923d be7a d4bd 9121 90bd
000003d0: eeda 393b 5c12 8e3d fac9 c63d 00b1 2a3d
000003e0: ea98 82bd 6ac4 28bd 965a 1bbc 3d3c 6e3d
000003f0: e6ea b33d 64ee 8f3d 36aa 16bd 594a 5b3c
-0.035220016 0.029642291 -0.03945413 -0.016845442 -0.046876006 0.03213107 -0.13788143 -0.01939465
-0.111106366 0.10403387 -0.15425298 -0.20595755 0.018062303 0.07887742 0.07944799 0.1103296
0.06850713 0.040015247 0.11239451 -0.089950316 -0.052236736 0.036698878 0.06305468 -0.07948612
0.15061437 0.0028849423 0.084452346 -0.062480994 -0.0121797165 -0.03900646 0.0004239911 -0.059527773
0.0014317435 0.13716109 -0.106087096 0.030875884 0.08695009 0.19107614 0.12430905 0.018782763
0.06710597 0.15115796 -0.02332908 0.024096332 -0.05093275 0.11175638 -0.10672867 -0.015011899
0.049866386 -0.0650433 -0.042321995 0.14042969 -0.032254335 -0.061549354 -0.15126581 -0.015542577
-0.035871197 0.05026643 -0.017211009 0.045823663 -0.04058973 -0.072882615 -0.08869376 -0.048193473
-0.018247655 -0.19104779 -0.034526326 -0.04021592 -0.02321764 0.09803662 -0.0062227366 0.04094953
0.02241131 -0.13882136 0.020373657 -0.04413846 0.05088051 0.15824924 -0.01881288 -0.03423051
0.057242587 -0.095030636 0.0059143053 0.019512258 -0.06852011 -0.09391179 -0.07554168 -0.02929133
-0.036407787 -0.04404021 -0.08001738 -0.0133902775 -0.03431562 -0.20668224 -0.014702417 -0.0910045
-0.0110516 0.085181504 0.02719025 0.07748203 0.008754828 -0.02188145 -0.16143005 -0.087653525
-0.13333032 -0.17037408 -0.09909487 -0.16796778 0.056486987 0.1084397 0.08946691 -0.13511175
-0.016514221 -0.016378174 -0.012897553 -0.0017101212 -0.11204972 -0.017647522 0.04752873 -0.042688716
-0.005283404 0.0726266 -0.097330764 -0.016587216 -0.114978254 -0.0456848 0.039818376 0.07596581
0.014300621 0.008823445 -0.01867444 -0.08408046 0.0012055628 0.02419392 0.12951602 0.08884853
-0.023050256 -0.06894012 -0.1154979 0.037853524 -0.06761326 -0.091177195 0.116875224 0.027117075
0.09165103 -0.05546508 -0.034759354 0.14676094 0.10242982 -0.07976788 0.06160861 0.019531777
-0.067190215 -0.030825384 -0.01665925 -0.025278678 -0.023674583 -0.033081263 -0.12402247 0.046829235
0.000917717 -0.06715198 0.011841951 -0.039097913 0.0140255885 -0.07153914 -0.11541859 -0.0047380985
-0.051243458 -0.123385444 0.085672826 0.07143284 0.06272856 -0.10246159 0.09166574 -0.0071589593
-0.035538074 0.11828091 0.07689416 0.04715827 0.06820266 0.081811 -0.051303927 0.08340855
-0.009816938 -0.16784225 0.0013374892 0.0062976494 0.012280189 0.026270373 -0.049216717 -0.08797849
0.124232695 -0.091068596 -0.05803285 0.07594974 -0.03585226 -0.16849717 0.049073357 0.07259778
-0.101092875 0.10535492 0.07352583 -0.027065443 0.03418538 0.07837603 -0.18931562 -0.074822076
0.112405725 0.07300637 -0.037901223 -0.004195273 0.006657585 0.0908941 0.08706616 0.06943101
0.18262997 -0.18303758 -0.06141857 0.07245382 -0.079702295 -0.06638192 -0.0130043905 0.0050071413
0.14861001 -0.08499085 -0.018979756 -0.02060143 0.07948036 -0.063227594 -0.038965236 0.13103184
0.028280849 -0.09237338 0.026018947 0.019729936 -0.04106468 -0.01345743 -0.049803052 -0.09431445
0.048086986 0.07169706 -0.10374974 -0.07037652 0.0028359252 0.069370955 0.09706493 0.041672707
-0.06376822 -0.04120294 -0.009482047 0.058162916 0.08785038 0.07027891 -0.03678342 0.013384425

layer3.bn1.weight f4 [16]
00000000: 7033 7e3f a0d7 943f 901d 823f 74ee 4e3f
00000010: dde0 7e3f 1820 833f e601 5e3f b3a1 813f
00000020: 5e99 813f f65e 733f 650b 813f ca47 6e3f
00000030: 3cac 6e3f a65e 823f 0780 743f 916d 863f
0.9929724 1.1628304 1.0165272 0.808326 0.99561864 1.0244169 0.86721647 1.0127472
1.0124929 0.95066774 1.0081602 0.9307829 0.9323156 1.0185134 0.95507854 1.0502187

layer3.bn1.bias f4 [16]
00000000: 564a 4c3d 8bfc 8b3e c1f2 97bc 11b4 1cbd
00000010: 103e 673e 1c60 1dbe 488e 9d3e b526 693e
00000020: a50b 51be 33bf eabd 1e0d a0bd 38a0 4dbd
00000030: 722f 1f3e a34a 183e 5de0 8fbe 2f40 bd3e
0.04987558 0.27341112 -0.018548371 -0.038257662 0.22582269 -0.15368694 0.30772614 0.22768672
-0.20414598 -0.114622496 -0.07815002 -0.050201625 0.15545443 0.14872222 -0.28100863 0.3696303

layer3.bn1.running_mean f4 [16]
00000000: 967e 2e3e cd82 93bf e840 bcbe 8bb1 ff38
00000010: 8b02 1dbf 5e2a afbc 74af 4c3d 77c7 df3e
00000020: def3 b53f a01d 97be a427 d83e 915b 093c
00000030: ee20 d83e b895 40bf 5860 db3e ef84 983d
0.17040476 -1.1524292 -0.3676827 0.000121924175 -0.61332005 -0.021382507 0.049972013 0.43706867
1.4215047 -0.2951479 0.42217743 0.008383648 0.42212623 -0.7522845 0.42846942 0.0744723

layer3.bn1.running_var f4 [16]
00000000: 3146 3a3f 8444 cf3f 9a45 213f 843a 123e
00000010: 7e9b 333f 154d 4f3f 03a2 0e3f e812 ac3f
00000020: 25b8 943f d859 153f a8ad 1e3f 2bf6 e53e
00000030: 9b4d 523f 756b 913f 973a cd3e 4f0f aa3f
0.72763354 1.6192784 0.6299683 0.14280134 0.7015914 0.8097699 0.5571596 1.344327
1.1618696 0.58340216 0.6198373 0.44914374 0.82149667 1.1360918 0.40083763 1.3285922
