base_model/model_decoder_a.pth (torch, 15078 bytes, 23 tensors)

bn1.weight f4 [4]
000000 00 00 80 3f 00 00 80 3f 00 00 80 3f 00 00 80 3f
       1.0 1.0 1.0 1.0

bn1.bias f4 [4]
000000 00 00 00 00 00 00 00 00 00 00 00 00 00 00 00 00
       0.0 0.0 0.0 0.0

bn1.running_mean f4 [4]
000000 00 00 00 00 00 00 00 00 00 00 00 00 00 00 00 00
       0.0 0.0 0.0 0.0

bn1.running_var f4 [4]
000000 00 00 80 3f 00 00 80 3f 00 00 80 3f 00 00 80 3f
       1.0 1.0 1.0 1.0

layer1.conv1.weight f4 [2, 4, 3, 3]
000000 b7 bb 8a 3d 00 a0 ed bd 24 c5 5f 3e 04 08 f4 3c
       0.06774085 -0.11602783 0.21852547 0.029788978
000010 da 83 c4 3d e6 c3 ac ba 6b 87 6d 3c e5 2f 3c bd
       0.09595461 -0.0013180941 0.014497618 -0.045944113
000020 d5 66 a9 bd e2 bc d4 bd 01 e5 bb bc 18 1c 84 be
       -0.08271567 -0.10387589 -0.022936346 -0.25802684
000030 ea a1 1c bd fe bc c0 3c 47 fe 3a 3c 50 3b 9b bc
       -0.03824035 0.023527618 0.0114131635 -0.01894918
000040 33 c6 15 bd d2 92 4c 3e cb cb 82 bd e7 ec 8d 3d
       -0.03656597 0.19977883 -0.06386527 0.06929951
000050 1b a9 50 be 06 8c 00 be 6b 0a 1e 3c 32 da 30 be
       -0.20377009 -0.12553415 0.0096460385 -0.17270735
000060 6a d5 74 bd 40 dd d7 3d e5 0d d7 3d 77 46 37 3d
       -0.05977384 0.10540247 0.10500697 0.044744935
000070 be 6b b3 3d 4f e3 8d 3d a8 a4 dd bc 7a 08 57 bc
       0.087607846 0.06928121 -0.027056053 -0.01312458
000080 35 7b b0 bc 71 15 1d be 67 3b af 3d d3 02 95 3d
       -0.021543125 -0.1534021 0.08556252 0.07275929
000090 09 45 ef 3d c8 9b 16 bd e4 70 a5 3d 6a b1 75 3a
       0.11683089 -0.03676966 0.08078173 0.0009372445
0000a0 33 ae f8 3c 00 d5 f9 3c 0f 52 90 bd 61 13 c4 3d
       0.030356502 0.030497074 -0.070469014 0.09574009
0000b0 ec ca d4 bc bc 3a 86 bd 52 cf e7 bc 30 dd 57 bd
       -0.025975667 -0.065541714 -0.0282971 -0.052701175
0000c0 e9 d4 1d be 3a 6d 76 bd 16 eb e0 bd 9e fe aa bd
       -0.1541325 -0.06016276 -0.10982339 -0.083493456
0000d0 cf 51 18 be 98 5c 7e bd ad 30 fb 3d f4 12 ce bd
       -0.14874958 -0.062100023 0.122651435 -0.10062209
0000e0 76 4e ab 3d ae 3e f9 3c 3c b7 10 be b4 d4 43 bd
       0.083645746 0.030425396 -0.14132398 -0.04781027
0000f0 98 07 60 3e bd 5a 07 be 6a 7b 1d 3e dc 7c 2a bd
       0.21877897 -0.13218208 0.1537911 -0.04162298
000100 28 7a de bd 6d 52 82 3c 4a c2 88 bd d1 99 c9 bd
       -0.10863143 0.015908444 -0.06677683 -0.09843791
000110 17 12 b6 bd 03 9f 63 3d 0c 5d d6 bd 2b 55 d4 3d
       -0.08890169 0.055571567 -0.10466966 0.10367807

layer1.bn1.weight f4 [2]
000000 b5 8e 63 3f 54 f3 8e 3f
       0.8888963 1.1168008

layer1.bn1.bias f4 [2]
000000 73 2b 67 bd e0 1c a9 3d
       -0.05643792 0.082574606

layer1.bn1.running_mean f4 [2]
000000 42 b4 ce bd 14 e0 ec be
       -0.10092975 -0.46264708

layer1.bn1.running_var f4 [2]
000000 f5 7b 51 3f a1 d9 2a 3f
       0.8182977 0.66738325

layer1.conv2.weight f4 [2, 2, 3, 3]
000000 af af e3 3c af 5d b6 3e b2 e8 2f be 04 c6 6b 3d
       0.027793733 0.3561835 -0.1717861 0.05756189
000010 62 a0 a8 bd ee b1 8b 3c 13 cb 10 be 3b 41 0b 3e
       -0.082337156 0.017052617 -0.14139967 0.13599102
000020 5f 30 02 3d 93 d4 8c be 0c 22 96 3d 0e 92 8e 3e
       0.03178441 -0.2750593 0.07330713 0.27845806
000030 d9 67 b3 bd 37 4c 25 3e 80 b4 5b be 62 13 1d be
       -0.08760042 0.16142355 -0.21455574 -0.15339425
000040 96 75 2b bc 75 29 39 3e 4d c4 7c 3c 36 bf 56 3c
       -0.010465046 0.18082221 0.015427661 0.013107112
000050 2e f8 e9 3c 37 3e 50 be b9 0c 36 bc e1 a2 19 bd
       0.028560724 -0.20336233 -0.011111432 -0.03750885
000060 f7 52 0c be d1 ec 63 be b8 16 f4 3d c6 05 3d 3d
       -0.13703524 -0.22258307 0.11918396 0.046148084
000070 18 c5 ac 3e 59 2d 15 be 21 94 36 be 99 14 e6 bd
       0.3374412 -0.1456808 -0.17829944 -0.112343974
000080 64 83 f2 bd 38 7a fe 3d c8 b9 5e 3d 4f 61 b7 3d
       -0.11841467 0.12425655 0.054376394 0.08954107

layer1.bn2.weight f4 [2]
000000 80 af 84 3f 22 8f 77 3f
       1.0366058 0.9670278

layer1.bn2.bias f4 [2]
000000 e0 01 e7 3e cb be 7b bd
       0.45118618 -0.06146125

layer1.bn2.running_mean f4 [2]
000000 54 ae 8b 3d f9 e2 00 be
       0.0682036 -0.12586583

layer1.bn2.running_var f4 [2]
000000 33 69 47 3c ae 32 9a 3d
       0.012171078 0.07529198

layer1.shortcut.0.weight f4 [2, 4, 1, 1]
000000 c6 60 d2 3e 70 69 97 be ea a2 49 be 19 c4 68 3d
       0.41089457 -0.2957263 -0.19691053 0.05682764
000010 c0 34 01 3e 1d 65 76 be 14 e9 be 3e f1 92 e5 be
       0.12617779 -0.24062009 0.372872 -0.4483867

layer1.shortcut.1.weight f4 [2]
000000 fa fe 58 3f 45 5a 4a 3f
       0.84764063 0.7904399

layer1.shortcut.1.bias f4 [2]
000000 e0 01 e7 3e cb be 7b bd
       0.45118618 -0.06146125

layer1.shortcut.1.running_mean f4 [2]
000000 73 87 76 be 5d 5b 5a be
       -0.24075107 -0.21323915

layer1.shortcut.1.running_var f4 [2]
000000 6c d9 8d 3e 8c 72 bf 3d
       0.27704942 0.0934802

layer2.conv1.weight f4 [1, 2, 3, 3]
000000 48 11 ca 3e b9 34 f9 3d 23 73 8a 3d 34 a2 6d 3e
       0.3946631 0.12168259 0.06760242 0.23206407
000010 48 90 83 3d 6c 53 9a bd a8 0f b4 bd ac 1e 5d 3e
       0.06424004 -0.07535443 -0.08792049 0.21593732
000020 c8 6f cd bd dc 17 8c 3e 79 e4 f4 bd 14 87 46 3e
       -0.10031086 0.27361953 -0.1195764 0.19387466
000030 23 dc 46 3e 56 02 b8 bd 79 e2 4a 3e 76 b0 00 3e
       0.19419913 -0.089848205 0.19812955 0.12567315
000040 37 d9 3f 3e 35 d2 16 3e
       0.18735205 0.14728625

layer2.conv2.weight f4 [1, 1, 3, 3]
000000 26 13 2e be 80 1f b9 be d6 d7 9d 3e 1c f4 67 bd
       -0.16999492 -0.36156845 0.30828732 -0.056629285
000010 ac 62 53 be 18 28 39 bd 97 5a cd 3e c5 76 b8 bd
       -0.20643109 -0.045204252 0.40108177 -0.090070285
000020 01 97 36 3e
       0.17831041

layer2.shortcut.0.weight f4 [1, 2, 1, 1]
000000 67 0e 63 3f 9d 76 5a 3e
       0.8869385 0.2133431

conv2.weight f4 [1, 1, 3, 3]
000000 28 7c fd be 73 ef 67 bf 1e bd 4f be 63 a8 c6 be
       -0.49508786 -0.90599746 -0.20286986 -0.38800344
000010 af 81 76 be 2f 55 fc 3e d0 4f 58 3e 38 56 4c bf
       -0.24072908 0.4928374 0.21124196 -0.7981906
000020 97 e5 a0 bf
       -1.2570065
